{
  "layers" : [
    {
      "weights_max" : 0,
      "has_biases" : 1,
      "fused_relu" : 1,
      "Ny" : 3,
      "blob_weights" : 1,
      "C" : 32,
      "K" : 3,
      "c" : 0,
      "type" : "convolution",
      "k" : 0,
      "no_padding" : 0,
      "stride" : 1,
      "bottom" : "data",
      "blob_biases" : 0,
      "has_8bit_weights" : 0,
      "Nx" : 3,
      "name" : "conv1_student",
      "weights_min" : 0
    },
    {
      "stride" : 2,
      "bottom" : "conv1_student",
      "half_size" : 1,
      "size" : 3,
      "avg_or_max" : 1,
      "type" : "pool",
      "name" : "pool1_student"
    },
    {
      "beta" : 0.75,
      "alpha" : 5e-05,
      "type" : "lrn",
      "name" : "norm1_student",
      "bottom" : "pool1_student"
    },
    {
      "weights_max" : 0,
      "has_biases" : 1,
      "fused_relu" : 1,
      "Ny" : 3,
      "blob_weights" : 3,
      "C" : 32,
      "K" : 32,
      "c" : 0,
      "type" : "convolution",
      "k" : 0,
      "no_padding" : 0,
      "stride" : 1,
      "bottom" : "norm1_student",
      "blob_biases" : 2,
      "has_8bit_weights" : 0,
      "Nx" : 3,
      "name" : "conv2_student",
      "weights_min" : 0
    },
    {
      "beta" : 0.75,
      "alpha" : 5e-05,
      "type" : "lrn",
      "name" : "norm2_student",
      "bottom" : "conv2_student"
    },
    {
      "weights_max" : 0,
      "has_biases" : 1,
      "fused_relu" : 1,
      "Ny" : 3,
      "blob_weights" : 5,
      "C" : 64,
      "K" : 32,
      "c" : 0,
      "type" : "convolution",
      "k" : 0,
      "no_padding" : 0,
      "stride" : 1,
      "bottom" : "norm2_student",
      "blob_biases" : 4,
      "has_8bit_weights" : 0,
      "Nx" : 3,
      "name" : "conv3_student",
      "weights_min" : 0
    },
    {
      "stride" : 2,
      "bottom" : "conv3_student",
      "half_size" : 1,
      "size" : 3,
      "avg_or_max" : 1,
      "type" : "pool",
      "name" : "pool3_student"
    },
    {
      "weights_max" : 0,
      "has_biases" : 1,
      "fused_relu" : 1,
      "Ny" : 3,
      "blob_weights" : 7,
      "C" : 64,
      "K" : 64,
      "c" : 0,
      "type" : "convolution",
      "k" : 0,
      "no_padding" : 0,
      "stride" : 1,
      "bottom" : "pool3_student",
      "blob_biases" : 6,
      "has_8bit_weights" : 0,
      "Nx" : 3,
      "name" : "conv4_student",
      "weights_min" : 0
    },
    {
      "weights_max" : 0,
      "has_biases" : 1,
      "fused_relu" : 1,
      "Ny" : 3,
      "blob_weights" : 9,
      "C" : 64,
      "K" : 64,
      "c" : 0,
      "type" : "convolution",
      "k" : 0,
      "no_padding" : 0,
      "stride" : 1,
      "bottom" : "conv4_student",
      "blob_biases" : 8,
      "has_8bit_weights" : 0,
      "Nx" : 3,
      "name" : "conv5_student",
      "weights_min" : 0
    },
    {
      "stride" : 2,
      "bottom" : "conv5_student",
      "half_size" : 1,
      "size" : 3,
      "avg_or_max" : 0,
      "type" : "pool",
      "name" : "pool5_student"
    },
    {
      "weights_max" : 0,
      "has_biases" : 1,
      "fused_relu" : 1,
      "Ny" : 3,
      "blob_weights" : 11,
      "C" : 32,
      "K" : 64,
      "c" : 0,
      "type" : "convolution",
      "k" : 0,
      "no_padding" : 1,
      "stride" : 1,
      "bottom" : "pool5_student",
      "blob_biases" : 10,
      "has_8bit_weights" : 0,
      "Nx" : 3,
      "name" : "fc6-conv_student",
      "weights_min" : 0
    },
    {
      "weights_max" : 0,
      "has_biases" : 1,
      "fused_relu" : 0,
      "Ny" : 1,
      "blob_weights" : 13,
      "C" : 2,
      "K" : 32,
      "c" : 0,
      "type" : "convolution",
      "k" : 0,
      "no_padding" : 1,
      "stride" : 1,
      "bottom" : "fc6-conv_student",
      "blob_biases" : 12,
      "has_8bit_weights" : 0,
      "Nx" : 1,
      "name" : "fc2-conv_student",
      "weights_min" : 0
    },
    {
      "C" : 2,
      "C4" : 1,
      "type" : "softmax",
      "name" : "prob_student",
      "bottom" : "fc2-conv_student"
    },
    {
      "weights_max" : 0,
      "has_biases" : 1,
      "fused_relu" : 1,
      "Ny" : 3,
      "blob_weights" : 15,
      "C" : 64,
      "K" : 64,
      "c" : 0,
      "type" : "convolution",
      "k" : 0,
      "no_padding" : 0,
      "stride" : 1,
      "bottom" : "pool5_student",
      "blob_biases" : 14,
      "has_8bit_weights" : 0,
      "Nx" : 3,
      "name" : "conv6_student",
      "weights_min" : 0
    },
    {
      "weights_max" : 0,
      "has_biases" : 1,
      "fused_relu" : 1,
      "Ny" : 3,
      "blob_weights" : 17,
      "C" : 32,
      "K" : 64,
      "c" : 0,
      "type" : "convolution",
      "k" : 0,
      "no_padding" : 1,
      "stride" : 1,
      "bottom" : "conv6_student",
      "blob_biases" : 16,
      "has_8bit_weights" : 0,
      "Nx" : 3,
      "name" : "fc8-conv_student",
      "weights_min" : 0
    },
    {
      "weights_max" : 0,
      "has_biases" : 1,
      "fused_relu" : 0,
      "Ny" : 1,
      "blob_weights" : 19,
      "C" : 3,
      "K" : 32,
      "c" : 0,
      "type" : "convolution",
      "k" : 0,
      "no_padding" : 1,
      "stride" : 1,
      "bottom" : "fc8-conv_student",
      "blob_biases" : 18,
      "has_8bit_weights" : 0,
      "Nx" : 1,
      "name" : "fc4-conv_student",
      "weights_min" : 0
    }
  ],
  "storage" : "model8c_.espresso.weights"
}